project/Final Report/Phase 0 - Network Training in Software/data_hls/mlp_hls.pt (torch, 15903 bytes, 4 tensors)

weight f4 [10, 324]
000000 bc 36 99 3b b4 7e 70 3c e2 0a c9 3d a7 ae 3f 3e
       0.0046757143 0.014678646 0.09816529 0.18718968
000010 1e b0 3d 3e 5d f9 55 3e e5 fe 20 3e e2 aa 0f 3e
       0.18524215 0.20895906 0.15722235 0.1403003
000020 20 bc a2 3d 56 1f 15 3c 1a 2e 8d 3d 4a e4 87 3d
       0.07946038 0.009101709 0.06893559 0.066353396
000030 df 99 91 3d f3 fc 80 3d 49 e4 3d bc 6d 8d 07 ba
       0.07109427 0.06298246 -0.011590072 -0.00051709154
000040 08 c0 93 bd 1a 7c 01 be bf dd b1 3d 04 00 ca 3d
       -0.072143614 -0.12644997 0.08684873 0.09863284
000050 0b e5 2e 3d bc f4 2f 3d ba ce 1f 3e 81 6c 84 3d
       0.0426989 0.042958006 0.15606204 0.06466008
000060 9e 47 83 3a 7a d4 4f bc 64 15 33 3d 5f 71 4b 3d
       0.001001585 -0.012684936 0.04372157 0.049668666
000070 9c 74 92 bb 49 e5 40 3d 3f 52 8a bc 20 17 62 3d
       -0.0044694673 0.047093663 -0.016884921 0.055197835
000080 09 d9 45 bd b3 11 a3 bd b3 f1 af bd b9 69 2b be
       -0.048302684 -0.0796236 -0.08591022 -0.16739549
000090 07 d0 f2 3d f2 22 a0 3d 9b 3c 80 bd 41 63 ab 3d
       0.11856084 0.07819165 -0.062615596 0.083685406
0000a0 0e 26 0a 3d 17 b3 47 3d e0 c4 8a 3d 19 a8 bb 3d
       0.033727698 0.048754778 0.06775832 0.091629215
0000b0 84 c8 3b 3d fa 2d b1 3d aa ce 2d 3d d4 fb 3b 3d
       0.045845523 0.086513475 0.04243342 0.04589446
0000c0 73 8f 48 3c 6c d4 54 bd df fd ef 3b 7c 2e 44 bd
       0.012241232 -0.051960394 0.007323965 -0.047895893
0000d0 6a 85 8c bc 66 11 a2 bd 1f cb 3c 3d 51 94 cc 3c
       -0.01715346 -0.07913475 0.04609215 0.024973067
0000e0 b1 cf 06 3c 9b f7 0a 3c c1 51 24 3d 73 4d f3 3d
       0.008228228 0.008481885 0.04011703 0.11880007
0000f0 df 14 cc 3d 5a 45 1b bc 2f a0 85 3d b0 46 04 3e
       0.09964918 -0.009476984 0.06524693 0.1291759
000100 f9 21 51 3d c7 3a 4e bd ac c7 da 3c 84 4c c6 bd
       0.05105779 -0.050349023 0.02670654 -0.09682563
000110 c2 27 69 3d 3c 17 e4 bb 36 f8 8d 3c 55 6f 71 bd
       0.05692268 -0.0069607776 0.01733027 -0.058944065
000120 30 b0 c4 3c 07 4f c8 bc 67 fb 10 3c 67 90 44 3c
       0.024009794 -0.024451746 0.0088490015 0.011997319
000130 79 44 07 3d 0d 91 28 bc 83 45 4f bd 28 b4 07 bd
       0.033024285 -0.010288489 -0.0506034 -0.033130795
000140 cc f3 97 bd c0 dd d9 bb 87 fd 21 3d 83 6e 9a bc
       -0.074195474 -0.006648749 0.039548423 -0.018851524
000150 0f 45 bb bc 31 b9 a3 bc 1b bf 54 bc 1e b8 75 3d
       -0.022860078 -0.019985767 -0.012985016 0.05999004
000160 34 57 10 bd 92 c8 8b bd d6 58 1b bd 9f 4a 73 bd
       -0.035239413 -0.06825365 -0.037926517 -0.059397336
000170 11 39 09 be c9 18 2c be 8e df 4f be 97 f6 5c be
       -0.13400675 -0.1680633 -0.20300123 -0.21578442
000180 99 07 9b be a9 d3 90 be cb 76 a3 be 2e f3 33 be
       -0.30279234 -0.28286484 -0.3192657 -0.17573234
000190 ce a6 e3 bd 0b 15 12 3c 05 6a d8 3c b0 84 61 bd
       -0.111158 0.00891615 0.026417742 -0.05505818
0001a0 45 13 a4 bd e4 64 8e bd 94 2b cd bb 4d 98 24 be
       -0.08011488 -0.06952837 -0.0062612984 -0.16073723
0001b0 ae 98 5a be b6 e5 48 be b1 b6 98 be af 92 c9 be
       -0.21347305 -0.19618878 -0.29826882 -0.39369723
0001c0 3d e8 e1 be ff b1 c0 be ee 86 89 be 7e c0 b1 be
       -0.44122496 -0.376358 -0.26860756 -0.34717172
0001d0 80 0f 9f be 3d 49 55 be fa 26 ce bd 96 a3 4d bd
       -0.31066513 -0.2082872 -0.10066028 -0.050204836
0001e0 f1 ee 89 bd 39 a5 92 bd 60 58 36 3c d4 9f 86 bd
       -0.067350276 -0.0716042 0.011129469 -0.065734535
0001f0 12 5c 41 be 99 ac 79 be 98 80 72 be 53 d1 d5 be
       -0.18882778 -0.24382247 -0.23681867 -0.41761264
000200 be a3 d9 be 89 26 d2 be 38 e4 aa be 7a d8 42 be
       -0.42507738 -0.41045025 -0.33377242 -0.19027892
000210 88 81 50 be 27 ca cc bd eb f9 39 be 2f d7 0d be
       -0.20361912 -0.09999495 -0.18161742 -0.13851617
000220 45 83 3f bc 7a 9b 08 bd 00 a6 fb bd d0 c1 72 bd
       -0.011689012 -0.0333514 -0.12287521 -0.059266865
000230 3e d5 84 bd fb b0 99 bd 57 89 52 be 1c 13 6e be
       -0.06485985 -0.075044595 -0.20560203 -0.23249477
000240 11 6d c4 be fb 4a c3 be 93 3f d3 be ab 52 5c be
       -0.3836446 -0.38143143 -0.4125944 -0.2151591
000250 9e 68 05 be f4 12 63 bd 98 eb 8c 3d 2c 9b 97 3d
       -0.1302819 -0.055437997 0.068808734 0.074026436
000260 56 39 f7 3d 9a 10 71 3d bd 31 1c bd 93 96 0d 3c
       0.12071483 0.058853723 -0.03813337 0.008641857
000270 a6 d8 87 bb 35 1d 14 bd 09 60 f4 bc b1 bd f6 bd
       -0.0041456996 -0.036160666 -0.02983095 -0.120478995
000280 fa 62 cf bd 67 12 3f be d8 4b 88 be a1 24 47 be
       -0.101263 -0.18659364 -0.26620364 -0.19447567
000290 7c c8 6c bd fe 6d 29 3b a0 6a e0 3d c2 f0 c7 3d
       -0.057808384 0.0025852914 0.10957837 0.09762718
0002a0 5c d3 11 3e db 6c ed 3d 5a bc ef 3d 80 37 03 3e
       0.14240783 0.11593028 0.11705847 0.1281414
0002b0 2a cf 80 3d 73 4b 9d bb 23 7f 1a bd 4a 06 98 3c
       0.062895134 -0.004800254 -0.037718903 0.018557686
0002c0 e2 c5 06 bc fa 39 df 3c a9 7c 75 bd f1 a5 2b be
       -0.00822589 0.027249325 -0.05993334 -0.1676252
0002d0 66 f6 c5 bd 10 10 1b 3d 1d 4d 7c 3d 35 2b 76 3c
       -0.096661374 0.037857115 0.06159698 0.01502495
0002e0 8a 49 87 3d 00 87 b4 3d 68 28 4d 3d c1 59 5e 3d
       0.06605823 0.08814812 0.050087363 0.054284815
0002f0 5e 3c e4 3d 26 b7 4c 3d 23 02 85 3d 61 8a b5 3d
       0.111443266 0.04997935 0.06494548 0.08864284
000300 15 a2 f5 3c 2c 8c 43 bd 7c 24 91 bc 15 2d c5 bd
       0.029984513 -0.0477411 -0.017717592 -0.09627739
000310 62 51 13 bd 4d 9a ad bd 05 bb 18 3e 6a 93 bb 3d
       -0.035966285 -0.08476696 0.14915092 0.091589764
000320 a6 8f b4 3d 6d 24 cd bc 9f 73 3d bb da a0 00 bc
       0.08816461 -0.025041783 -0.0028908027 -0.00785085
000330 8b c1 38 3d b0 50 21 3e 56 d7 30 3e f4 7c 06 3e
       0.045106452 0.15753436 0.17269644 0.13133603
000340 d3 45 21 3d 5b b7 3f 3d f8 3f 91 3d 80 fa 03 3d
       0.03937323 0.04680572 0.07092279 0.032221317
000350 2a 7e 11 3d 12 db 7e 3d 3c 63 de 3d 07 26 ff 3d
       0.03552071 0.06222064 0.10858771 0.12458425
000360 52 a9 13 3e 5b 7c a2 3d 53 90 e0 3c 3a 76 9a 3c
       0.1442006 0.07933875 0.02741257 0.018855203
000370 54 62 b2 bd 0f ad b2 bd b5 64 8d bc ce 89 8a bc
       -0.08710161 -0.087244146 -0.017259935 -0.016911414
000380 72 e5 32 3d 9b 9c 76 39 8d bf da 3d e1 66 77 3d
       0.043675847 0.00023518728 0.10681067 0.060400847
000390 bc 45 be 3d a0 04 bc 3d 4d 8c e4 3d e7 15 08 3d
       0.092906445 0.0918057 0.11159573 0.033224013
0003a0 db a6 e8 3d 44 b7 4e 3e 47 1e 80 3e 79 3d 41 3e
       0.1135995 0.20187098 0.250231 0.18871106
0003b0 d3 5a 98 3d 0d fc 6d bd 4c 06 4b bd 14 9f 00 bd
       0.07439198 -0.058101702 -0.049566552 -0.03140171
0003c0 bd 29 91 bd 08 73 84 3d dd a9 87 3d 03 90 82 3d
       -0.07088039 0.06467253 0.06624196 0.06375124
0003d0 7b 8d 88 3d cf ee 42 3e 84 08 d1 3d 54 90 0d 3e
       0.0666761 0.19036411 0.10206702 0.13824588
0003e0 aa 28 2e 3e a1 2a f1 3d d1 da a9 3d e4 cf 6d 3e
       0.170077 0.11775709 0.08293689 0.23223835
0003f0 0e 31 61 3e 69 3c 18 3e f8 11 49 3e 49 a9 bb 3d
       0.21991369 0.14866795 0.19635761 0.09163148

bias f4 [10]
000000 c4 8d 95 bc ab 0c 26 be 0a 19 ba 3d 8d ed b9 bd
       -0.018256076 -0.1621577 0.09086807 -0.09078512
000010 03 61 25 be 2c 64 ce 3e 6e cb d9 be 58 51 d1 3e
       -0.16150288 0.403108 -0.42538017 0.40882373
000020 3a db cc 3e 6c 84 89 3e
       0.40011007 0.26858842

weight f4 [10, 10]
000000 bc cc 43 bf b8 ec 22 3f f5 b0 95 bf 0d 52 9b be
       -0.76484275 0.63642454 -1.1694628 -0.30336037
000010 64 79 1c be 54 82 79 3f 04 8f 35 3f 10 f1 83 3e
       -0.15280682 0.9746449 0.7092135 0.25769854
000020 a5 b6 bf be 79 d9 ad be ad b5 9a be 75 d9 07 bf
       -0.37444034 -0.3395498 -0.30216733 -0.5306619
000030 61 95 b6 3f 1d 19 15 bf 1b b9 1a bf a8 25 0b bf
       1.4264337 -0.58241445 -0.604387 -0.54354334
000040 16 ee c4 be a6 48 d2 bd 20 24 b0 be 6f e8 40 bf
       -0.38462895 -0.10267763 -0.3440256 -0.75354666
000050 41 cc b8 3f fe 29 76 3f f0 1d 48 be 4d 8a 25 bf
       1.4437333 0.96157825 -0.1954267 -0.64664155
000060 b4 71 89 3e ea 29 ef bd 83 0d 8c 3e 17 42 d8 be
       0.2684456 -0.11677916 0.2735406 -0.42237923
000070 7e 25 91 3e a1 a1 ff be 67 db 86 3f d6 01 eb bd
       0.28348917 -0.49928 1.0535706 -0.114749596
000080 a6 9b b0 3e d4 ce 65 3d 33 f6 31 bf 26 2e ad be
       0.3449375 0.05610545 -0.69516295 -0.3382427
000090 ed fa 38 3f 09 e1 29 3f 40 ae bd be 93 93 8c 3e
       0.7225788 0.66359 -0.37047005 0.2745634
0000a0 7a e1 2a bf 58 13 ed be d4 e5 09 bf 72 e0 06 bf
       -0.667503 -0.4630382 -0.53866315 -0.52686226
0000b0 d8 ea 8d 3f 89 ce 4b bf c1 54 d3 be e1 2e 65 3e
       1.1087294 -0.7961202 -0.412756 0.22381164
0000c0 fd f0 b3 bd 1e 30 66 3f 40 99 b0 3e 05 0c cf 3d
       -0.08786199 0.8991717 0.3449192 0.101097144
0000d0 60 d8 dc bd fe bc 84 3f 78 4f 79 be 1e e2 81 3f
       -0.10783458 1.0370176 -0.24346721 1.014713
0000e0 b3 51 75 bf 51 e9 96 3e 8c 12 69 bf 6a 3f e4 3e
       -0.9582779 0.2947488 -0.91043925 0.4457963
0000f0 bb ed 86 be e6 7e 30 bf 55 56 34 bd 9d 6a d1 bd
       -0.2635325 -0.6894363 -0.044027645 -0.10225413
000100 8a 1b 85 3f c0 bb 06 3f 6f ec 93 be 23 70 b9 bc
       1.0399029 0.52630234 -0.28891322 -0.022636479
000110 43 5c 90 3e ea 8b b3 bf 8a 71 6f 3e ab 48 01 3f
       0.2819539 -1.4027073 0.23383155 0.5050151
000120 91 75 bc be 41 70 17 bf a0 ac 94 bf 96 fb d2 be
       -0.36808446 -0.5915566 -1.1615181 -0.4120757
000130 8e 9c 57 be d2 ba e0 3e e4 81 ab 3f ee b1 34 3f
       -0.21055815 0.43892533 1.3399014 0.70584
000140 64 6b 01 bf 2c 27 0d 3f 76 0c b8 3e 91 a9 8e bd
       -0.5055449 0.55137897 0.35947007 -0.06965936
000150 65 f3 e1 3e b9 66 50 bd cf 6b c5 3e 4f 59 84 bf
       0.44131008 -0.050879214 0.38558814 -1.0339755
000160 5e 4b 32 bf ba 22 97 3e 4d 63 5f bf 96 5d 21 bf
       -0.6964625 0.29518682 -0.87260896 -0.63033426
000170 2d 7b 5e be 0d 59 2b 3f 79 8c 91 be 67 f6 01 bc
       -0.21726675 0.66932756 -0.28427485 -0.007932282
000180 9e 07 1d 3f d1 e0 50 bf bd 31 38 3f 7e 40 21 3f
       0.6133975 -0.8159304 0.71950895 0.6298903

bias f4 [10]
000000 2a 6e b9 be 70 1e 3f 3f a9 78 2c 3e 96 80 84 be
       -0.3621686 0.7465582 0.16842903 -0.25879353
000010 9e ad 8c bd d4 b3 1b 3f 08 30 80 be a0 47 31 3e
       -0.06869052 0.6082127 -0.25036645 0.17312479
000020 ec a6 14 bf d6 db a8 be
       -0.580672 -0.32980222
